model/Ann_exam_score_model.pkl (torch, 16817 bytes, 5 tensors)

model.0.weight f4 [64, 19]
00000000: 752d 103e a3fb 92be fd76 723d f1ea 9dbc
00000010: b31f 04bf ed07 32be ed9d 8d3c cf48 36be
00000020: dcd7 74bd 3b77 45be 255a 5ebe 8c7c 4bbe
00000030: 5010 623f 4721 663d bfc3 453e 6d0f 383f
00000040: bb96 ad3e cae6 e8bb f28b 4bbf 4269 aa3d
00000050: 340b 673e 0b76 dcbd e462 5b3d 743b 05bf
00000060: 0186 053e b1b3 e73c a69b aa3c 7fe3 d53e
00000070: bce4 483e a6c6 ec3d a4f8 663d 1b28 00bf
00000080: 0e35 a0be fd9b 9dbd 4d7a 89bf 8a75 c53d
00000090: c297 043e 3449 cfbe 26c9 15be f78f 093f
000000a0: d4c0 90be 27b2 74be 52cd 3fbf d7e0 24be
000000b0: c506 febd 41e9 8b3c 9e81 37be f4db 2a3f
000000c0: 8a14 ae3e 5f4a 903e 4d41 643d 00fe 10bf
000000d0: d59b b2be c67d 973e a2b9 1d3c 8051 d0be
000000e0: 26b8 963f 3417 9cbd 0701 913e aea6 243e
000000f0: a752 4b3e fbfa 90be 9432 14bd 1d02 d13e
00000100: 3676 ebbd 5c61 08bf 8021 fa3d 03c1 063e
00000110: 6caf 9bbd 9bf6 adbf 5754 53be 7f5e 693e
00000120: d29c a9bd be21 b4be adf6 b8be 11a0 aa3e
00000130: f5be d7bd 33be 13bf 7c85 823e 1de7 df3c
00000140: 2fcc bd3e 1f13 3c3e 0a88 4cbe dbf5 6bbc
00000150: 986e e1be 5817 7e3d d4ed af3d 4b7f 28be
00000160: 8c57 2ebe 1eba 0bbd f8e2 5dbd e54e 64bf
00000170: dbab 03bf 914e 8a3e f68d 973f 5dad b83d
00000180: afe7 1bbe 3c32 ab3c 31f9 a7ba 6b99 2e3e
00000190: cb0f 61bd 721e 853e 0a45 36be 77a8 6abe
000001a0: 9497 34bd df83 883e 9450 243c 4b4d 803e
000001b0: 1f0c 5b3e a3cb 9c3d d8a6 14be 5557 633e
000001c0: 3f46 173e 2219 81bf df72 f0be 48f8 c2be
000001d0: 9796 0a3d 10ab a73e 88fe 6fbe c310 f23d
000001e0: f5ca 36bd e001 0abe 3a93 c23f 75e8 493d
000001f0: b6c7 f3be 1b33 f5bd c774 9c3e b5a3 443d
00000200: 467f 95be 1afe 0c3e 01bf 2e3d 28e5 ef3d
00000210: 8647 983e 4ac7 4d3d 13af bbbd a1bf f03e
00000220: 7f6d b0be 8ef7 7f3d 953a 113e 0a35 6fbe
00000230: f083 203d 0f98 233f 1288 a33e 7cf9 a43e
00000240: d51d 273e 7740 94bf 036f b7be ba0f 45bd
00000250: 2a50 aebe 56d7 753e b5bc 0e3e d39f c2be
00000260: 17b9 a43d fa70 143c f28c 033e 921b c63d
00000270: a579 553f 9835 923d 0934 47be 99ea 4abe
00000280: 9d87 b03e 9952 6fbd e5f4 733e cf00 b73d
00000290: 10d4 5b3f 735a f73d 2899 283e 28fc aa3e
000002a0: 7ec0 04bd 21bc a9bd d2c6 07bf e720 14be
000002b0: 6dfe 263e bb9f d63d fe79 903d e3ec d93e
000002c0: 58e5 493e 955b c1bd f039 273e 4b7d 56be
000002d0: 1cb3 05be 44f0 38bd 1dd0 2ebd 289b 9a3e
000002e0: c2c5 e53d 129b d13d 2d81 79bf 1f17 2a3e
000002f0: 57a4 7abe 0604 4c3f ba09 b83e 10a6 f03d
00000300: ae97 a0be 824a 48bc 1d23 a1be 7c62 003d
00000310: 2fcf 963e b3d5 4dbd 4839 893f 6561 333e
00000320: 345c dc3d 69d1 263e 97bb 883e 5272 1c3e
00000330: 6251 70ba 4821 99bf ee63 b23e 395c b83e
00000340: b769 cabe b136 a53d 392c d2bd d8e6 c7bd
00000350: b53a fdbc 5e82 63bf 3864 e6bd 0a9a 09be
00000360: 234b 8abd 9559 1d3f ab76 6dbe a6f2 28be
00000370: ae12 3c3e 3991 d5bd 6e78 d03d a0f7 74bd
00000380: 50ce 5dbf 1e4a e8be 6bf3 37bd a306 3dbf
00000390: 8292 4c3d f9a4 1d3e 72e3 97bd d21e 903e
000003a0: bc62 46be 3d47 d3bd a6a4 183e f0a2 f9bd
000003b0: cf24 13be 13df 063d 08ca 243e 3535 c23e
000003c0: fc7f 91be 0d45 24be 847c d23d ad16 553f
000003d0: 3961 013e 2673 22bd 505f 80bf 3317 42be
000003e0: 04ed 17bf d067 f53e b5c7 303e 9654 9e3e
000003f0: d831 fe3d 6aa7 a83c 2b95 4a3e 48b5 b2bd
0.1407984 -0.2870761 0.059195507 -0.019277068 -0.5161087 -0.17385836 0.017287219 -0.17801212
-0.059776172 -0.19283764 -0.21714075 -0.1987173 0.8830614 0.05618408 0.19312952 0.7189854
0.3390406 -0.0071075903 -0.79510415 0.083208576 0.22562867 -0.107647024 0.053561106 -0.52043843
0.130394 0.028283926 0.020826172 0.41775128 0.19618505 0.11561327 0.056389466 -0.50061196
-0.31290478 -0.07695768 -1.0740448 0.096415594 0.12948516 -0.40485537 -0.14627513 0.537353
-0.28272116 -0.23896085 -0.7492267 -0.16101395 -0.12403635 0.017078998 -0.17920539 0.6674187
0.34000045 0.2818174 0.05572634 -0.56637573 -0.34884515 0.29588145 0.009626778 -0.4068718
1.1774948 -0.07621613 0.28321096 0.16079208 0.19855748 -0.28316483 -0.036181048 0.40821925
-0.11497156 -0.5327356 0.12213421 0.13159566 -0.076018184 -1.3590883 -0.20637642 0.22789954
-0.08281864 -0.35181993 -0.361257 0.33325246 -0.10534469 -0.57712096 0.25492465 0.027331883
0.37069842 0.18366669 -0.1997377 -0.014401878 -0.4402969 0.06203398 0.08590284 -0.16454808
-0.17025584 -0.034113042 -0.054171532 -0.89182884 -0.51434106 0.27013066 1.1840198 0.090174414
-0.15225099 0.020897977 -0.0012815354 0.17050712 -0.054946702 0.2599979 -0.17799774 -0.22915827
-0.04408987 0.2666311 0.010028977 0.2505897 0.21391343 0.07656028 -0.14516771 0.22201283
0.1477289 -1.0085795 -0.4696264 -0.3808005 0.03383502 0.32747698 -0.2343694 0.11819603
-0.04462715 -0.13477278 1.520118 0.049293954 -0.47613305 -0.11972638 0.30557844 0.048007686
-0.29198664 0.13768807 0.042662624 0.1171363 0.29742068 0.050238885 -0.09164252 0.470212
-0.3445854 0.062491946 0.14182504 -0.23360077 0.039188325 0.639039 0.3193975 0.3222159
0.16319974 -1.1582173 -0.35826883 -0.0481107 -0.34045535 0.24007925 0.13939174 -0.3801256
0.080431156 0.009060139 0.12846735 0.09673227 0.8338874 0.071391284 -0.19453444 -0.19816054
0.34478465 -0.05842838 0.23823889 0.08935701 0.85870457 0.12077799 0.16464674 0.33395505
-0.032410137 -0.08287836 -0.5303775 -0.14465676 0.16307993 0.10479685 0.07054518 0.42563543
0.19716394 -0.09441296 0.16330695 -0.20946233 -0.13056606 -0.04515101 -0.04267894 0.301965
0.1121936 0.102346554 -0.9746273 0.16610382 -0.24476753 0.7969364 0.3594492 0.11750424
-0.31365722 -0.012224795 -0.31472102 0.031343922 0.29454944 -0.050252628 1.0720606 0.17517622
0.10759774 0.16290821 0.2670562 0.15277985 -0.00091674004 -1.1963282 0.34841865 0.3600786
-0.3953378 0.08067072 -0.10262341 -0.09760827 -0.030911783 -0.888708 -0.11249584 -0.13437667
-0.067526124 0.61464816 -0.231898 -0.16498813 0.183665 -0.1042809 0.1017922 -0.059806466
-0.8664293 -0.45369047 -0.044909876 -0.7383825 0.04994441 0.15394963 -0.074164286 0.28148514
-0.19373602 -0.10316322 0.14906558 -0.12189281 -0.1436951 0.032927584 0.16092694 0.3793122
-0.28417957 -0.16041966 0.10277656 0.83237725 0.12634744 -0.039660595 -1.0029087 -0.18954162
-0.5934603 0.47930765 0.17263682 0.3092391 0.12411851 0.020587642 0.19783466 -0.08725983

model.0.bias f4 [64]
00000000: ba95 863f 4273 913f 5dcb 8abe 2eef 733f
00000010: cc74 d43e 8da3 593f 5807 b93f 61e9 d53e
00000020: d181 c73e 1e01 083f a15f 1f3f a47f 9d3e
00000030: f051 303f 91a8 793f 3506 c63e e940 b93f
00000040: 43cc d83e 75f9 953f be80 3d3f 02fc 893f
00000050: 7d98 223f 8b7d 233f 1ee9 843f bb60 173f
00000060: 80e0 1d3f 0189 c83e 4369 263f c083 3f3f
00000070: 2207 993e 5e56 113e 5de4 b23e 152c 993f
00000080: c6b1 1c3f 5dd9 d03e aa63 863f ca4d 593f
00000090: baa2 06bf 1885 ba3e 8294 6b3f 3389 203f
000000a0: a808 953f 851f 8e3b ae30 6dbe e86c 9f3e
000000b0: a1e9 573f 8400 4abe bac2 a53f a769 853f
000000c0: d186 823f 38e6 383f ce17 333f d991 de3e
000000d0: b114 9f3f e5f7 5e3f a0c2 813f a4f8 3cbe
000000e0: f6c0 1d3f 0e31 983e 8bcd 303f e859 813d
000000f0: c172 3a3f 752e 44be ceb0 8d3f 8771 2c3f
1.0514443 1.1363299 -0.2710828 0.95286834 0.4149536 0.85015184 1.4455366 0.41779616
0.3896623 0.53126705 0.62255293 0.30761445 0.68875027 0.97522837 0.3867661 1.4472934
0.4234334 1.1716753 0.7402457 1.0780032 0.6351393 0.6386344 1.0383642 0.59131974
0.61670685 0.39167026 0.65004367 0.7481041 0.29888254 0.14193103 0.34939852 1.1966578
0.6120876 0.40790835 1.0499165 0.8488432 -0.5259205 0.36429667 0.9202348 0.6270935
1.1643267 0.0043372535 -0.23163101 0.31137776 0.84340864 -0.19726759 1.2950051 1.0422868
1.0197393 0.72226286 0.699582 0.43470648 1.242819 0.8709701 1.013752 -0.18454224
0.6162256 0.29724926 0.69063634 0.063159764 0.7283135 -0.19158347 1.1069582 0.6736073

model.2.weight f4 [32, 64]
00000000: ed9b d53e c954 263e d4e8 b73d 8c7b df3e
00000010: adcf 853e 6b03 8b3e 8166 ae3e e2db 123e
00000020: d26f 693e cfa8 fa3d ee28 2a3e 10ea 8d3d
00000030: cc51 5e3e cd1b 923e 16e9 a03e 8504 153e
00000040: f80b a93d e6a9 3c3e c905 ad3e af58 d83e
00000050: 2152 733e 8eea b83e b502 763e 70a0 d23e
00000060: fd63 c33e a359 afbe 115f 713e ed06 9c3d
00000070: f336 923e 76e2 4cbc bfed b43d bf11 be3e
00000080: 6da0 7d3d b0d0 a13e 545c bc3e 9996 b03e
00000090: 59b3 c53e 6ab6 af3e f67e 0b3e 5464 5d3e
000000a0: 3042 5f3e 656b 813e f908 dcbd dac0 5f3e
000000b0: a330 013d eff6 b4bd 7f94 f63e 0fec 893e
000000c0: 309f cd3e 7ec8 a7bd bfc9 bb3e 9009 4b3e
000000d0: 2ac2 a23e ec40 893e 738a 6c3e 3ebc 81bd
000000e0: 3a97 3c3e a2e5 133e 6ca9 3e3e a227 e83e
000000f0: b6f2 2c3d 65f2 e73e 3e2c ad3e 1897 003e
00000100: 8bdd 7e3e 648e 6d3d 310c b1bd a287 b93e
00000110: 9c94 d13e 701e 0a3e b4ff e93e 3a64 313e
00000120: 1338 033e 25ba 6bbd 8f12 823d 33fc 103e
00000130: 98ad c63e 255b 063e ef19 c23e 46aa 933c
00000140: b29f fe3d 873c 653e e289 623e d8d6 5e3e
00000150: 3140 6f3d fdfe 8e3e 547a ea3d 3535 913e
00000160: 09e2 f73e 78b4 8dbe 748c ac3e 1b74 f53d
00000170: d090 7d3e bea7 00be e0bc 2f3d c650 ef3e
00000180: 7e68 1d3e 2115 803e c24b 9f3e fc66 2a3e
00000190: 31b0 d03e 6560 0b3f 6656 323e f28b 583e
000001a0: 37a8 c83e 1f54 bb3e dc8a 35be 56e6 6f3e
000001b0: 8cb3 debb 4a2d 663d ed9d f53e 9c29 ae3e
000001c0: de91 e43e 1b0e dd3c 69ed bd3e b71d 193e
000001d0: 8e80 f13e f90e ef3e a3c6 833e bced 64be
000001e0: 4b63 613e ed7a 90bd 02ae 943e f56a ca3e
000001f0: dba0 ec3d b9ff e13e e92d e03e 591b 893e
00000200: 8017 7c3e 6443 093e 1d4c 0d3e ff24 e73e
00000210: 8654 cc3e 40d7 a63e 072a cf3e c932 823e
00000220: 0fca 4e3e 4be2 a83d 3d97 9a3d 4b5b 1f3d
00000230: 1ab7 a73e ba7a 9b3e f8dc d83e 27f1 333e
00000240: ed89 033e bc95 cf3d 009c dc3d 5d37 a13e
00000250: 3adf 0e3e 2448 ab3e 8085 1d3e c1dd d43e
00000260: 7f3b 033f 7945 abbe e8b0 373e 3402 ab3d
00000270: 222c 743e 4c4a 24be ef53 e13d 1683 ca3e
00000280: 6c2a a2bc 7fd2 4a3e 22f5 213e d902 8e3e
00000290: 321d 933e dae7 d73e 2215 003d cea5 b23e
000002a0: 10ec d13e ae73 f03e 055d 46be 4275 813e
000002b0: 4d2f 573e a2ae a03b 98c2 dd3e dd2b 5c3e
000002c0: acaf 913e 630a 8f3d 9e7d bf3e b60c bd3d
000002d0: 2d84 b13e de7e b73e f92e d13e 845b 29be
000002e0: b660 0a3e 2f80 d73b 9807 8d3e 7e28 923e
000002f0: 2316 143e 7e7f a93e b121 9f3e 6772 943e
00000300: 1a5e 64bd 551e 233d e7da 3ebe a6f2 b43a
00000310: 44c7 6d3d 4fbb ddbd 5494 36be 0854 d4bd
00000320: 446a 003d c58d 6b3d a684 bc3a 4acb 003d
00000330: 2f24 35be 154f ecbc 342f 72bd ca15 d3bd
00000340: 0d17 c8bd 62c4 3cbd 8e13 a7bd d713 c6bd
00000350: 0f2a 0cbe e065 0abe 18a6 ae3d 994b dd3c
00000360: dfab b4bd bf94 743d c029 27be fda5 9bbd
00000370: 7ef5 12be eb3e a1bc 076e 6abd 92d8 b6bd
00000380: 95e0 8abc 406e c5bd ce63 b23c 5c7a c7bd
00000390: 92b4 2ebe 503d c2bc 01e7 a5bd 425f 263d
000003a0: a7c5 203c 44d1 52bd 7d3f 4abd ac98 ac3d
000003b0: 1a27 d9bd c5d6 e33b 382b 0bbe be5b 77bd
000003c0: 5444 6e3c 4054 2abe 0b9a 77bd 0df5 253c
000003d0: fc67 7f3d f1f7 3dbd 2ce0 213d daa5 78be
000003e0: 2eb1 1f3d f1c5 d5bc 9399 26bd 78f4 0ebd
000003f0: a363 b5bd ffc8 893d d675 623d ec69 f03c
0.41720524 0.1624328 0.08979955 0.43648946 0.26135007 0.27151045 0.3406258 0.14341691
0.22796562 0.12239229 0.16617176 0.069294095 0.2171089 0.28536835 0.3142783 0.14552505
0.08254236 0.18424186 0.33793476 0.4225516 0.23761798 0.3611645 0.2402447 0.4113803
0.38162223 -0.34248075 0.23571421 0.076185085 0.28557548 -0.012505164 0.08834409 0.37122914
0.061920572 0.31604528 0.3678919 0.34489897 0.38613394 0.34318858 0.1362265 0.21620303
0.21802592 0.25277248 -0.10743899 0.21850911 0.031540524 -0.08836161 0.4816017 0.2693791
0.40160513 -0.08192538 0.36677358 0.19827867 0.3178876 0.26807344 0.23099689 -0.063347325
0.18417063 0.14443067 0.18619317 0.45342737 0.042223655 0.4530212 0.33822817 0.12557638
0.248892 0.057997122 -0.086449035 0.36236292 0.40933692 0.13488173 0.45702899 0.1732339
0.1281436 -0.057550568 0.06351196 0.14158706 0.38804317 0.13120706 0.3791041 0.018025529
0.12432803 0.2238637 0.2212291 0.21761644 0.058410827 0.27928916 0.114491135 0.28360906
0.4841464 -0.2767675 0.33700907 0.11985036 0.24762273 -0.12563989 0.042904735 0.46741313
0.15371892 0.2501612 0.31112486 0.16640848 0.40759423 0.5444396 0.17415771 0.21147135
0.39190838 0.36587617 -0.17728752 0.2342771 -0.006796306 0.056195535 0.4797205 0.3401612
0.44642538 0.026984265 0.37095192 0.14952742 0.47168392 0.4669111 0.25737485 -0.22356313
0.22010534 -0.07054696 0.29039007 0.39534727 0.11554118 0.44140413 0.43785027 0.26778677
0.2461834 0.13404614 0.13798566 0.45145413 0.39908236 0.32586098 0.40461752 0.2542937
0.20194267 0.08246287 0.07548378 0.038905423 0.32756883 0.3036707 0.42356086 0.17572461
0.12845583 0.101359814 0.10771942 0.3148755 0.13952342 0.33453476 0.15382957 0.41575435
0.5126266 -0.3345144 0.17938578 0.083500296 0.2384496 -0.16043967 0.11002337 0.39553136
-0.019795619 0.1980686 0.15816167 0.27736548 0.28733212 0.42169076 0.031270154 0.34892124
0.41000414 0.46963257 -0.19371422 0.25284773 0.21014138 0.0049036304 0.43312526 0.21501108
0.2845434 0.06984403 0.37400526 0.0923094 0.34671155 0.3583898 0.4085615 -0.16538817
0.13513455 0.00657656 0.27544856 0.28546518 0.1446157 0.3310508 0.31080392 0.28993532
-0.055753805 0.03982385 -0.18638192 0.0013805225 0.058051363 -0.10826742 -0.1783002 -0.1036759
0.031351343 0.05750825 0.0014382794 0.03144387 -0.17689584 -0.028846303 -0.059127048 -0.1030689
-0.097700216 -0.046085723 -0.08158027 -0.09671753 -0.13687919 -0.13515425 0.085277736 0.027013587
-0.08821844 0.059712168 -0.1632452 -0.07600019 -0.1435146 -0.019683322 -0.057233837 -0.08928026
-0.016952792 -0.09640169 0.021776106 -0.09740135 -0.1706107 -0.023710877 -0.08100701 0.04061819
0.009812749 -0.051469103 -0.049376953 0.08427557 -0.10603161 0.0069530928 -0.13590705 -0.060390227
0.014542658 -0.16633701 -0.06044964 0.010129225 0.062355027 -0.046379033 0.039520428 -0.24282017
0.03898733 -0.026095362 -0.040673804 -0.034901112 -0.08856895 0.0672779 0.05528816 0.029347382

model.2.bias f4 [32]
00000000: 9d9e 8e3e 252f 323e 4403 9d3e 1738 7cbc
00000010: 8a0b 5d3e eaa3 5abc 523d 0d3e e9e6 d73c
00000020: fcf5 3e3e ff11 2e3e 5746 ddbe 9a6d 5e3e
00000030: dce4 8d3e 854a 25be cf63 813e 969b 59bd
00000040: eb39 783e 6ff7 713e c0fa 853e 0968 cebd
00000050: e6eb b13e 53e0 863e 35d6 483e e68b 8c3e
00000060: 6833 0b3e 2d3d 903e 2056 90be c207 20be
00000070: 1f33 f8bd 3872 a83d d3b1 d13c 5632 30be
0.27855387 0.17400797 0.30666554 -0.015394232 0.21586433 -0.013344744 0.13792923 0.026355224
0.18648523 0.16999052 -0.43217728 0.21721497 0.27713668 -0.16141708 0.2527146 -0.053126894
0.24240844 0.23629545 0.2616787 -0.10078437 0.3475029 0.2634302 0.19612963 0.27450484
0.13593829 0.28171673 -0.28190708 -0.1562796 -0.121191256 0.082249105 0.025597489 -0.17206702

model.4.weight f4 [1, 32]
00000000: 4988 a03e cfd5 943e 60c5 a23e 2924 d1bd
00000010: bdf1 433e 4cd3 0bbe 6120 913e d939 e4bd
00000020: 648f ad3e ce95 8a3e 2b28 95bf 1031 643e
00000030: 89fa 733e 5d0a f7bf c7f5 303e 37c1 e3bd
00000040: 638f a43e 1753 403e 19a8 6d3e 0f00 a8bf
00000050: 28da 4e3e 756c 423e 1347 943d 4dc5 4b3e
00000060: b185 843e d636 a53e ba17 c2bf 3646 11bd
00000070: 5aa9 fdbd d010 f8bd 849b dcbd 123f 80bf
0.31353977 0.29069373 0.3179121 -0.10211975 0.19135185 -0.13654822 0.28345016 -0.11143846
0.3389846 0.27067417 -1.1652883 0.22284341 0.2382604 -1.9300038 0.17281257 -0.11120837
0.32140645 0.18781696 0.23208655 -1.3125018 0.20200408 0.18986686 0.07240119 0.19899483
0.25883248 0.322684 -1.5163491 -0.03546735 -0.12385817 -0.12112582 -0.1077185 -1.0019248
